Dr. Strange/data.pth (torch, 5463 bytes, 6 tensors)

l1.weight f4 [8, 66]
00000000: d033 05bf 2010 f1bd 8ee1 77bd 2aa5 e43e
00000010: f741 233f fd17 c03e 5cc2 c4bd 22df 6fbe
00000020: d008 a4be 1aa3 0f3f eba0 d23e 8384 133f
00000030: b969 663f 7780 a7be 7de9 9a3e 83bd b33e
00000040: ef12 83be 5401 f03e fcc8 b53e fe18 3f3e
00000050: a01d 67be ab38 5fbe 695d bbbe 2789 843d
00000060: bb8a ce3e 56cd 43be 46fb ab3e fee6 3c3f
00000070: e671 15bf ee0b bbbe 3785 763e 096b 023e
00000080: 8e8d 3f3f a039 0c3e baf5 353f 41e5 1e3f
00000090: 0e7c 9b3e 639f ec3d 2f2a eb3e 517b ad3e
000000a0: 1750 d93c 75f1 ba3d d64f 753e fb19 db3d
000000b0: 8214 57be 0e86 9dbe 77c4 563e 5ca3 1ebe
000000c0: 0c4c 62be 8b10 2d3f 34df 983e e433 35be
000000d0: 6018 003f 91e5 c23e 7faf fa3e fccb 6abf
000000e0: 9261 b8be 87eb b23e 564e 41be 8d94 c13e
000000f0: 8e98 a13e 4554 163e f7bb 7fbe ec08 973e
00000100: a621 a03e 9258 97bd 60ff c73d 6cb1 28bd
00000110: 1b86 f33e c6fa 1b3f c0eb c7bd 3e76 453d
00000120: 264c dfbd 1cc2 06be 02a9 cbbe ceb8 fdbc
00000130: 1105 c9be ca1c 173f c92d 5f3f d9a6 02bf
00000140: 852b e73e 1ab2 e03e c09d 663b 6a9e c3bd
00000150: 0eb2 a33e 9e8d bcbc 97c2 b1be 92f5 85bd
00000160: 3b28 a9be 805d c63b 06a3 0c3f 1847 353e
00000170: 8c95 8abe e2b8 313f 3863 f6be f2fc a8be
00000180: c108 f63e a2a3 cb3e a2c5 b4be 83bf 133e
00000190: 06e5 dbbe 69d3 dcbe b57c 7abe 261a bebd
000001a0: 3589 19be 7452 873e ae6e 4f3e 65d4 d63e
000001b0: a969 e43e 9ce7 9abe da82 09be da53 acbd
000001c0: 0f58 f93e 53b5 48be 181c 52bf cdb7 0a3f
000001d0: b69c cb3e 7e2d c4bd e480 3b3f 545b b33e
000001e0: d2f5 fd3e bb6c e13e d48c 0e3e 5353 7fbe
000001f0: 711b 70be 167c 173f aabe 003f 4d4d 743e
00000200: 60a2 82bd ece3 dc3e a1ce 583e ffda 75bb
00000210: 418c a2be b650 853e f70f e0bd f424 97be
00000220: 4593 00bf beb2 953d 04e1 bd3e 8420 c13e
00000230: 8c0b 023f 8ce1 193e c908 4abd 4ff0 c1be
00000240: 0a3a d4be d04d b73e 6e35 12be 3391 a1bc
00000250: b704 963e 9c09 7a3d 1c1b 9e3b 9a45 133e
00000260: 570f 4c3f dab6 073e a9fc d83e 1883 923e
00000270: 29dc 6ebe 484f 28bd 38ed 723d abef d3be
00000280: a1bf 1f3f eb73 df3e 77c3 01be e1c0 93bd
00000290: e256 443e 9c18 ee3d d5a7 463e 921a 103e
000002a0: 0ee0 03be 5767 c93e a6bd 5b3e bc5b ecbc
000002b0: 4522 e6bd 324d ab3e ef8f 92bc 6cb1 c93e
000002c0: ecce 993e f628 513e bf51 a0bd 21c6 7e3e
000002d0: 12ea 173f 47eb 1bbe 6357 55bd a6c7 b73e
000002e0: b592 a2be f985 d3bd 8630 64be 93b7 d3be
000002f0: b8b9 61be dcb1 4c3e f22c 3a3e ccca 86be
00000300: eb3d 29be 123b e7bc 2ee1 683e dc20 c03d
00000310: e207 86be 8b22 dabd 111c a4be 6521 4b3e
00000320: 2c1a 2c3f f231 e13e 4d67 00bf 0ed9 6a3e
00000330: 6f50 fb3e 7439 0b3f a5e7 5c3f dc5e 823d
00000340: 2165 4d3d d7f7 093f ced9 8bbe 073c 953e
00000350: 8614 553e b221 b33e 15b9 853e 7c4c 343d
00000360: bcc4 723e fd7e 703e fe8e 843f a0f0 123f
00000370: 1829 123f 2ed2 1b3f 41db c43e 6a8f f5bd
00000380: 37cd ef3c dfdf 89be 5543 423f 2e05 d43e
00000390: e6cb 913e e15f b53e 5c40 35bd ebdc 5d3c
000003a0: 200c 17be aebe 42bd 1150 7d3e 52f1 f13e
000003b0: 1fee 3ebd 6506 ecbe 0d22 99be acd8 403f
000003c0: feae b43e 20aa 423e f41b b33e 2d38 c33e
000003d0: 6c62 a53e a549 b03e 2fcf 1b3f 574b e13d
000003e0: 6203 653e 9eb6 fd3e 7600 d13e 4903 963e
000003f0: 36ca e63e ef62 e4be 27c2 16be e422 863c
-0.52032185 -0.11770654 -0.06051784 0.4465726 0.6377253 0.37518302 -0.096073836 -0.23424962
-0.32037973 0.5610825 0.41138396 0.5762407 0.9000507 -0.32715198 0.30256262 0.35105523
-0.25600383 0.46876013 0.355049 0.18661878 -0.22569895 -0.21798961 -0.36594704 0.06471472
0.40340218 -0.19121298 0.33590144 0.73789966 -0.5837692 -0.3653254 0.24074255 0.12736143
0.7482537 0.13693857 0.71078074 0.62068564 0.30368084 0.11553838 0.4593062 0.33883145
0.026527448 0.091280855 0.23956236 0.10698315 -0.21003917 -0.30766338 0.20973383 -0.15492004
-0.22099322 0.6760337 0.2985779 -0.17695576 0.50037193 0.3806577 0.48962018 -0.91717505
-0.3601194 0.34945318 -0.18877539 0.37808648 0.31561702 0.14680584 -0.24974047 0.29498994
0.31275672 -0.0738994 0.09765506 -0.041184828 0.47563252 0.60929525 -0.097617626 0.048208468
-0.10903196 -0.13159984 -0.3977738 -0.03097191 -0.39261678 0.59028304 0.8717924 -0.5103584
0.4515039 0.4388588 0.0035189241 -0.095516995 0.31971782 -0.023016747 -0.34718773 -0.065409794
-0.33038506 0.0060536265 0.54936254 0.17702901 -0.2706722 0.69422734 -0.48122573 -0.33005482
0.48053554 0.3977328 -0.35307032 0.14428525 -0.4294817 -0.43130043 -0.24461634 -0.09282331
-0.14993747 0.26430094 0.20257065 0.4195892 0.44611862 -0.3025483 -0.13428822 -0.08414431
0.48699996 -0.1960042 -0.8207412 0.5418671 0.39767998 -0.095789894 0.73243546 0.35030615
0.4960161 0.44028267 0.13920909 -0.2493413 -0.23447968 0.59173715 0.5029093 0.23857613
-0.06378627 0.4314264 0.21172573 -0.0037514565 -0.3174763 0.2603814 -0.10940545 -0.2952038
-0.50224715 0.07309483 0.37085736 0.3772012 0.5079887 0.15027446 -0.049324784 -0.37878653
-0.4145053 0.35801554 -0.14278194 -0.019722557 0.29300472 0.06104432 0.004825009 0.1438202
0.79710907 0.13253346 0.42380264 0.28615642 -0.23326172 -0.041091233 0.05930826 -0.4139379
0.6240178 0.43643126 -0.1267222 -0.07214523 0.19173768 0.116257876 0.1939996 0.14072636
-0.12878439 0.39336655 0.21459064 -0.028852336 -0.11237005 0.33457333 -0.017890899 0.39393175
0.3004068 0.20425782 -0.07828092 0.24880268 0.5934154 -0.1522647 -0.05208529 0.35894507
-0.31752554 -0.10328288 -0.22284135 -0.41350994 -0.22043502 0.19989723 0.18181208 -0.26326597
-0.16527526 -0.02822641 0.22742149 0.093812674 -0.2617789 -0.1065112 -0.32052663 0.19836958
0.67227435 0.43983418 -0.50157624 0.22934362 0.49084803 0.5438454 0.8629096 0.06365749
0.050145272 0.538938 -0.2731461 0.2914736 0.2080861 0.34986645 0.2611777 0.044018254
0.2370786 0.23485942 1.0356138 0.57398415 0.57093954 0.60867584 0.38448527 -0.11990245
0.029272659 -0.26928613 0.7588399 0.41410202 0.28475875 0.35424712 -0.04425083 0.0135414405
-0.14750719 -0.047545128 0.24737574 0.47254425 -0.04661381 -0.4609863 -0.2990879 0.75330615
0.35289758 0.1901021 0.34982264 0.38128796 0.32301652 0.34431186 0.6086301 0.11000698
0.22364572 0.49553388 0.40820664 0.2929938 0.4507615 -0.4460673 -0.147225 0.016374059

l1.bias f4 [8]
00000000: 3377 643f 051a d93e 8545 d13e a1cb e13e
00000010: d547 fa3e 34b5 263f 40a2 173f 803d 263f
0.89244384 0.42402664 0.40873352 0.4410067 0.48882928 0.65120244 0.5923195 0.6493759

l2.weight f4 [8, 8]
00000000: bebe 683f bc25 923f abe3 83bf 7317 483d
00000010: 2d96 2f3f 944e 45bf aa88 593e 08f9 07be
00000020: d082 2c3f 0964 963f c659 2cbf 11f4 253f
00000030: 7093 da3e 0b7f 14bf 85d3 d93c 53c0 c6be
00000040: 6b2d 5abf 822e 363f a367 1ebe 0bcc f23e
00000050: fc69 41be c388 873f c9d0 833f cd5d 69bf
00000060: 1caf 91be a652 94be efae 83be d0f2 703d
00000070: e66f 553e 805c bcbd 4541 8dbe 40a1 a53b
00000080: ec31 bd3d fc9a 15bf 409e 803f 1f14 ac3f
00000090: 1af7 a13f 68f5 4d3f 830f 45bf cf9c 7fbd
000000a0: c66f af3f 9ba8 003f 616c f93d 1a6f 833d
000000b0: 7abc b73e b586 59be 9f26 b8be 3dbe bc3f
000000c0: abb1 4e3f ff8a b63d 2437 0abf 65f9 a3be
000000d0: 38e8 09bf aa58 9c3f 4881 8b3f 8a3e 623f
000000e0: 4ea3 9abe 1a56 4abe 6c4e dbbd 844e 83be
000000f0: deb3 703e 5842 64be 4081 debd f2a0 413e
0.9091605 1.1417766 -1.0303854 0.048850488 0.68588525 -0.77073026 0.2124354 -0.13278592
0.67387104 1.1749278 -0.67324483 0.6482554 0.4269061 -0.5800635 0.026590118 -0.38818607
-0.8522555 0.71164715 -0.15469222 0.47421297 -0.18888086 1.0588611 1.0298091 -0.91158754
-0.2845391 -0.28969306 -0.257194 0.058825314 0.20843467 -0.091973305 -0.2758886 0.005054623
0.092380375 -0.5843961 1.0048294 1.344364 1.2653534 0.80452585 -0.76976794 -0.062405404
1.3705986 0.5025727 0.12178875 0.06417675 0.35885984 -0.21242793 -0.35966966 1.4745556
0.8073985 0.0891323 -0.5399039 -0.3202621 -0.5386996 1.2214558 1.0898829 0.8837668
-0.30202717 -0.19759408 -0.10708317 -0.2564584 0.23506114 -0.22290933 -0.10864496 0.18909052

l2.bias f4 [8]
00000000: 375f f8bd b1f7 403e 32db 873e f888 a7be
00000010: 7b95 0e3f 5354 1a3f 7a9c 1d3f 5eee a9be
-0.12127536 0.18844487 0.2653442 -0.32721686 0.5569684 0.6028492 0.6156689 -0.33189672

l3.weight f4 [6, 8]
00000000: e11d 42bf 37f6 66be 8ec4 93bf 5506 9e3e
00000010: 3105 083f c7fc 533e 9c00 85bf e2a0 58be
00000020: 17e3 433f 0457 e43e 6da1 8fbf a08a 20be
00000030: eb20 e7bf 82b2 a23e a98b 1d3e c8e7 5e3d
00000040: 01ef d9bf 825a b7bf f4de 9dbf 54a9 933d
00000050: 86b9 b9be 20da 173f 3f38 2e3f 4d68 b03e
00000060: 0f1b c9be adfb 8dbf fa15 913e 0cf1 a23d
00000070: 90f8 a43e cfcc b7bf 5c1f d6be 1cd9 ea3d
00000080: 47d2 55bf ffab 1dbf 18dc 353f f808 343d
00000090: 48f0 aebf d07d 87bf d683 263f 84a6 0a3e
000000a0: b7fe 8c3f bee3 2e3f a666 4fbf 8e7d 673e
000000b0: 3d89 b5be 69b5 bcbe 96e5 96bf e31b 9fbe
-0.7582684 -0.22554861 -1.1544359 0.30864206 0.5313292 0.20701896 -1.0390811 -0.21155122
0.76518387 0.44597638 -1.1221138 -0.15677881 -1.8056921 0.31776816 0.15385307 0.054420263
-1.7026063 -1.4324496 -1.2333665 0.07210031 -0.36274356 0.5931721 0.68054575 0.34454575
-0.39278457 -1.109243 0.2833708 0.07956132 0.32220888 -1.4359378 -0.418208 0.114671916
-0.8352398 -0.6159057 0.7103896 0.043953866 -1.3667078 -1.058527 0.65044916 0.13540083
1.1015233 0.68316257 -0.81016004 0.22606489 -0.35456267 -0.36857155 -1.1788814 -0.31075963

l3.bias f4 [6]
00000000: 2208 ec3e e525 343e f44e 1f3d fe04 833d
00000010: 1ca0 e73e 54ac 08bf
0.46099955 0.1759258 0.038893655 0.063974366 0.4523934 -0.5338795
